trained_models/Noise-NCA/japanese_flag/weights.pt (torch, 25821 bytes, 3 tensors)

w1.weight f4 [96, 48, 1, 1]
000000 28 85 0d bd 9e 0a a5 bd 42 eb 2c 3d fb 63 60 3c
       -0.034550816 -0.08058666 0.042216547 0.013695712
000010 b1 1c 99 bd c0 29 e4 bc 2f de b1 bd ac 40 22 bc
       -0.074761756 -0.02785194 -0.08684956 -0.009903114
000020 8d 68 21 bd d2 b6 d8 bb 3e 57 c2 bd 9d a0 c5 3b
       -0.039406348 -0.0066135908 -0.094892964 0.0060311095
000030 b9 b5 57 3d aa dd 4b bc 18 c4 4a 3d 6d 5d da bc
       0.05266354 -0.012442986 0.049503416 -0.026655877
000040 00 db b2 bd e3 f8 2c bd 25 58 b5 3a d2 4b 06 3d
       -0.08733177 -0.042229544 0.0013835473 0.03278715
000050 aa 80 5c bc 7a 92 80 3b c7 96 99 bc 36 4a 0b 3d
       -0.01345841 0.0039237114 -0.018748654 0.03400632
000060 c2 f5 c0 3d b6 48 1a bd 69 4a 10 3d c6 dc f7 3d
       0.094218746 -0.037667 0.035227213 0.12102656
000070 da 35 d1 bd fa 26 ba 3c 0c cc 97 bd b1 6d 22 3d
       -0.102153495 0.022723664 -0.07411966 0.03965539
000080 56 f4 bd 3d e0 ee 38 3d d0 e3 13 3d e6 86 94 bd
       0.09275119 0.045149684 0.03610593 -0.07252292
000090 ef bb a0 bd 43 1a 13 bd da f0 93 3b 1a a4 33 3c
       -0.078483455 -0.035913717 0.0045147957 0.010964418
0000a0 4a 2b c1 3d e8 fa cb 3c 31 a2 ae bd e3 cf 44 bc
       0.09432085 0.024899915 -0.08527029 -0.012012455
0000b0 df 82 b2 bc 52 79 8f 3d df ac 34 bd 6b 5e 0f bd
       -0.02179092 0.07005562 -0.044110175 -0.035002153
0000c0 03 9a bb bc 45 f4 c4 bb 61 dd 16 bc cf 85 58 3d
       -0.022900587 -0.0060105645 -0.009208054 0.052861985
0000d0 40 46 2d bd bb 1c 4f bc dd a5 b8 bb 4e ff 63 3d
       -0.042303324 -0.012641127 -0.005635007 0.0556634
0000e0 a5 5f 27 bd 21 e0 69 bb e4 f2 e3 bb c1 1c 8b bb
       -0.040862698 -0.003568657 -0.006956445 -0.004245371
0000f0 a0 3b 12 3d 10 b5 a3 bc 33 63 5c bc 2b 59 05 b9
       0.035701394 -0.019983798 -0.013451385 -0.00012717086
000100 cb df 66 3d 0f 3d e5 bb 26 1b 5a 3d 57 63 a3 bc
       0.05636577 -0.006995804 0.053248547 -0.01994483
000110 d2 3c 74 3c 7e 85 c7 3c 89 cd ab 3c d0 98 e7 bb
       0.014907079 0.024355646 0.02097203 -0.007067777
000120 b6 e1 54 3c 7d f8 3d 3b a1 27 e1 3c db f9 f7 bc
       0.012993267 0.0028987222 0.027484717 -0.030270508
000130 a1 6c f8 bc 9c 6c 66 bc e6 c6 ae 3c ca df dd bc
       -0.030325236 -0.01406398 0.021335077 -0.02708425
000140 4a 4c 66 bd 43 7a 98 bd 13 78 98 3b 48 49 dc 3c
       -0.0562251 -0.074451946 0.004652986 0.026890412
000150 1c b9 d1 3c 8c 6f c3 3a 5b 18 07 3d 94 bd 6c bb
       0.025600962 0.0014910563 0.03298221 -0.003612374
000160 8e 5e 27 bc 65 28 27 3d f4 01 2b 3b 9a 9b 06 bc
       -0.010215415 0.040810008 0.0026093693 -0.008215809
000170 98 57 0c 3d 6e 1f 35 bd 89 4c f3 bb 65 6c eb bb
       0.034263223 -0.044219427 -0.007424895 -0.0071845525
000180 23 1c 87 bd 0b 4b 2d bd 79 36 92 bc 36 30 2f 3c
       -0.065971635 -0.042307895 -0.01784824 0.010692647
000190 94 0b a5 3c 37 52 6c bc 28 8f 19 bd b6 7a cb 3c
       0.020147122 -0.014423898 -0.03749004 0.024838787
0001a0 6f dc 89 3b 00 3f 54 3c e8 5b ff bc 53 87 26 3d
       0.004207186 0.0129544735 -0.031171754 0.0406564
0001b0 0d e6 dd 3c db 58 3c 3d 17 04 a1 3c 4b 94 c1 bc
       0.027087236 0.045983177 0.01965527 -0.023630282
0001c0 3b 2b 6a 3c 66 e4 f7 bc 64 54 66 bc 02 84 dc b8
       0.0142925335 -0.030260276 -0.014058206 -0.00010515006
0001d0 88 c1 58 bc 7e 29 c9 3c 56 42 e6 3c 16 11 8c bc
       -0.013229735 0.024555918 0.028107803 -0.017097991
0001e0 d6 61 ec bc 38 10 bb 3c a2 a5 d4 bc 0f 5e 15 38
       -0.028855246 0.022834882 -0.025957886 3.5611967e-05
0001f0 d3 78 47 b9 aa ba a7 bd 8d 13 ac 39 fa ec cc 3d
       -0.0001902313 -0.081899 0.00032820963 0.10006137
000200 f7 18 10 bc 16 84 dd 3c 2f 01 6a bb ae 5b f9 3c
       -0.008795015 0.027040523 -0.0035706272 0.030439224
000210 a0 5d 15 bd 1c 89 1b 3c f5 a5 c8 3c 37 53 5c 3d
       -0.03646624 0.009493139 0.024493197 0.053790297
000220 8d 75 0f bd e0 76 ea 3b f3 62 17 bc 54 7c 89 bd
       -0.035024215 0.0071552843 -0.0092399 -0.06713167
000230 2f 92 a0 bd 39 d4 91 3b 4c 83 0e bc 0f 02 c9 3d
       -0.07840382 0.0044503477 -0.008698296 0.09814846
000240 8e f3 83 3b 37 40 bf 3c d2 6d 26 bd 86 f4 4a bd
       0.0040268367 0.02334605 -0.040632077 -0.049549602
000250 f0 f5 08 bd 55 2d 95 bb 3b 2c 2e 3c 0d ab 1f 3c
       -0.03343767 -0.004552523 0.010630663 0.0097453715
000260 77 0a 98 bd a2 96 90 3d f6 9a b0 bc 1f 14 17 3d
       -0.07423871 0.07059981 -0.021558266 0.036884423
000270 55 62 1b bd 06 46 cb bc dc a8 70 bd ca 6f e8 3b
       -0.037935574 -0.024813663 -0.058754787 0.0070934044
000280 c2 78 1a bd 88 e5 3f bc f3 bb 7d 3d 15 24 24 3d
       -0.03771282 -0.011712439 0.06194682 0.040073473
000290 82 7e 6d 3d b2 8a f2 b8 f9 da 5c bc a4 d9 05 be
       0.057981975 -0.00011565293 -0.0134799415 -0.13071305
0002a0 e9 99 3d bc af 06 7b ba 81 10 2d 3c 31 e4 00 bd
       -0.01157234 -0.0009575886 0.010563017 -0.03146762
0002b0 f0 cb 78 3b 30 91 3c bc 4c 5a 8b bc 81 d4 47 3d
       0.0037963353 -0.011509225 -0.01701083 0.048786644
0002c0 d8 f9 71 3c 5b 32 3d bd 3f e9 cf 3c d7 07 af bc
       0.01476904 -0.0461906 0.025379775 -0.021366043
0002d0 aa 01 46 bd d9 6c 3e 3b d2 76 31 3d e2 b7 27 3c
       -0.04834143 0.0029056577 0.043326207 0.010236712
0002e0 ab d6 a2 3d 93 e7 14 3b aa 50 57 3d 1f fa 85 bd
       0.07951101 0.0022721037 0.05256716 -0.065418474
0002f0 f0 4e 4c 3d e9 93 a0 bc 8c 6d 41 bd 9b 74 bb bd
       0.04987997 -0.019601779 -0.047223613 -0.091531
000300 9c d5 ba bd 8e 2f d9 3d a0 52 f7 3c a8 df 44 3d
       -0.09122774 0.106047735 0.030190766 0.048064858
000310 71 35 05 bd e9 50 c3 bc 63 c3 87 bd 3a 40 d9 3b
       -0.03252167 -0.023842292 -0.06629064 0.006629971
000320 12 b7 b9 bc db 2b 81 bd f5 94 f2 3c 97 81 18 bd
       -0.022670303 -0.06307193 0.029612044 -0.03723296
000330 63 d2 3b bd 92 dc da 3c d9 bb 7b bc 99 a3 ea 3c
       -0.045854937 0.026716504 -0.015364611 0.028642463
000340 c0 43 11 3d 6a 35 ee bc 1f 23 a1 3c 5d 05 37 bd
       0.035465002 -0.029078204 0.019670067 -0.04468285
000350 ed dd c7 3c b3 e0 7f bd 58 1e 00 bd 52 3f 4d bd
       0.024397815 -0.06247015 -0.031278938 -0.050109215
000360 31 bb 5e 3d 90 ef 07 3d 5d 67 d2 bc 36 a3 9c 3d
       0.05437774 0.03318745 -0.025684053 0.076483175
000370 8c 10 48 3b bd bc b4 bc 03 02 13 bb 90 b2 5e 3d
       0.003052744 -0.022062654 -0.002243162 0.05436951
000380 bb bb b1 3d 97 de 83 3d 92 9d 04 3d 00 c3 8c bc
       0.08678385 0.0643894 0.032376833 -0.017182827
000390 53 d2 b2 3c 94 a1 02 3d fa b6 05 3d ae b9 68 bd
       0.021828806 0.031892374 0.032645203 -0.056817703
0003a0 0c 4e 11 3d 96 5b 3d bd 3f 4c da bb 3c be 88 bc
       0.035474822 -0.04622992 -0.0066619213 -0.016692273
0003b0 5e dd 18 bd 82 e9 e8 3c fc 2d c5 3c 9e a7 22 3d
       -0.037320487 0.028431658 0.024069779 0.039710633
0003c0 12 e2 ac bd 8f b3 9f 3c 3a 64 da bc 75 08 1c 3d
       -0.08441557 0.0194948 -0.02665912 0.038094003
0003d0 f3 5c 92 bc ac ee f8 ba 6d 8e 63 bd 53 5a 95 3d
       -0.017866587 -0.0018992028 -0.05555575 0.072926186
0003e0 5e 6a 90 bd 94 39 6c bc f0 0d b0 3b 7a 54 fe 3c
       -0.07051538 -0.014418025 0.005372755 0.031046141
0003f0 20 ab 05 be 13 fb b1 3d 21 4a 23 3d 89 13 eb 3c
       -0.1305356 0.08690467 0.039865617 0.028695839

w1.bias f4 [96]
000000 20 31 fa bd 08 86 32 3d 41 61 1a 3d be c8 05 3e
       -0.12216401 0.043584853 0.037690405 0.13064858
000010 e6 de dd bd 40 60 19 be 6a 1e 04 be 54 b1 43 bd
       -0.1083353 -0.14978123 -0.12902227 -0.047776535
000020 55 56 34 bc 1d 10 8f 3c 68 82 6d 3d 7b 99 91 3d
       -0.011006911 0.017463738 0.057985693 0.07109352
000030 98 79 e4 bc 66 04 83 3d ed 8c 6f b9 80 9c ce bd
       -0.027890012 0.06397323 -0.00022845315 -0.10088444
000040 da c0 b3 3d 14 1b 01 be c1 06 2e 3d 45 00 42 be
       0.08777018 -0.12607986 0.04248691 -0.18945415
000050 6a 41 a4 3c 67 67 a0 bd f3 19 36 3d 22 e2 92 3d
       0.020050723 -0.078322224 0.04445834 0.07172038
000060 2c a9 f1 3c 60 35 29 3d 15 8a e9 bc 39 ad 87 3d
       0.029499613 0.041310668 -0.028508225 0.066248365
000070 52 86 c3 3b da f5 90 bd 6b 41 df 3d ae f4 c9 3c
       0.00596694 -0.070781425 0.10901149 0.024652805
000080 75 9e ed bd b3 16 cb 3d fd 5c e0 bd 41 6e 6b bc
       -0.11602489 0.09916439 -0.10955236 -0.014369548
000090 c9 c8 c3 3d db 30 c4 3d 0f 0b d1 bc 61 7f 84 3d
       0.09559781 0.09579631 -0.025517968 0.06469608
0000a0 c5 85 82 bd 92 75 ee 3c fb e0 0e be 3e 0b ba bd
       -0.06373171 0.029108796 -0.1395301 -0.090841755
0000b0 6a 9b c5 3c 82 7e bb bd c6 27 15 bd 31 77 bc bc
       0.024121959 -0.09154989 -0.036414884 -0.023006054
0000c0 67 26 3e be 65 b8 14 be f0 b9 85 3d 1c dd 9c 3d
       -0.18569337 -0.14523466 0.065296054 0.07659361
0000d0 a5 a5 58 3d a5 f6 2e be 9b cc 80 bd e9 37 46 3d
       0.052892346 -0.17086275 -0.062890254 0.048393164
0000e0 ad bd 21 be 55 a4 28 be 54 86 81 bc 5a c2 37 be
       -0.15795012 -0.16468938 -0.015811123 -0.17945233
0000f0 69 c1 67 3d 99 96 c7 bd b1 aa f7 bd 3a ee 17 bd
       0.056580935 -0.09745521 -0.12093104 -0.037092425
000100 b4 79 b5 3d 04 91 11 be 50 f1 f4 bb c8 73 2a 3d
       0.08861104 -0.14215475 -0.0074750558 0.041614324
000110 6d af 20 be f1 dd e7 3d e8 f1 bb bd 93 8f ff bd
       -0.1569192 0.11321629 -0.09176999 -0.124785565
000120 0b f9 8a bd 14 ea 0a 3d 3e 2d 61 bd 8e 6c 35 3d
       -0.067857824 0.03391464 -0.054974787 0.04429298
000130 48 e3 44 bd 1c 79 07 bd e0 02 1a bd 74 3d 0d bd
       -0.048068315 -0.033074483 -0.037600398 -0.034482434
000140 b2 e2 8b bd 33 41 05 3d 56 8a 3f 3d 85 55 08 3d
       -0.06830348 0.032532882 0.046762787 0.033284683
000150 6f 33 a0 bd 21 cc 95 3d 98 36 9e 3d 0d e8 58 3d
       -0.0782231 0.07314325 0.07725257 0.052955676
000160 95 2a 8d bd ac b5 e3 3c bd 3e 05 bd d8 c2 ab bb
       -0.068928875 0.027796589 -0.032530535 -0.005241733
000170 5d cc ad bc cf 3d 58 3d 7e 92 ea 3a ef a5 0a be
       -0.021215612 0.05279332 0.0017896441 -0.13539861

w2.weight f4 [12, 96, 1, 1]
000000 d4 6e 64 3d c3 f9 48 3c 06 f6 8a 3d 70 86 6b bc
       0.055769756 0.012266579 0.067852065 -0.014375314
000010 cd 23 ac bc c0 43 ef 3a 73 57 21 3d 07 b3 b2 3d
       -0.021013165 0.0018254444 0.03939004 0.08725553
000020 2f d3 8d 3c 6e a6 3d 3c cb b3 47 3d 0f 9c af 3a
       0.017312614 0.011575324 0.04875545 0.001339795
000030 e9 0c ac bb 8e a6 bd 3c 88 49 82 bd f7 a7 e8 3c
       -0.0052505624 0.023150709 -0.06361681 0.028400404
000040 53 bb 8e 3c 1b 49 83 bc 69 eb 26 3d c3 4d 6f 3d
       0.017423308 -0.01602607 0.04075185 0.05842377
000050 49 2f 48 bc 04 ff 5f bd a0 47 9f bd 35 50 06 3d
       -0.012218305 -0.05468656 -0.07777333 0.032791335
000060 c1 bd 40 bd 54 ea 56 3d 08 d7 38 bd f7 e2 44 3c
       -0.047055963 0.052469566 -0.045126945 0.012017003
000070 8d 65 d5 ba c1 fb 90 3d 30 e1 6a 3c d2 45 62 bc
       -0.0016280875 0.07079268 0.014335915 -0.013810592
000080 5f 8b 84 3d d9 4a 12 3c 49 ad fd bb 8b bc 83 bd
       0.064718954 0.008928978 -0.0077416045 -0.06432446
000090 50 7a af 3c d5 0e 53 3d c8 e5 4b bd 51 a3 7e 3d
       0.021420628 0.051527817 -0.049779683 0.06216747
0000a0 81 f2 d1 3c 08 92 b8 bc 56 73 af 3c d7 ac 9c bc
       0.02562833 -0.02253057 0.021417301 -0.019125385
0000b0 c7 38 2a bb 51 72 d9 bd 65 ff 65 bd 22 ad 36 bd
       -0.0025973783 -0.10617507 -0.056151766 -0.044598706
0000c0 cc 77 25 3c 93 a7 b2 bc 25 83 47 3d d8 f7 d8 3c
       0.010099363 -0.021808421 0.048709054 0.026485369
0000d0 c4 57 1a bb be c0 ea bc 42 72 08 3e c4 ca d6 3c
       -0.0023550848 -0.02865636 0.13324836 0.026219733
0000e0 56 f3 23 3d 3f 2b fb 3b 0c 9d f9 bb 04 3c d6 ba
       0.040026985 0.0076650674 -0.0076175984 -0.001634479
0000f0 db 89 4e 3d d8 73 36 3c b7 3f e5 3d da 81 e4 bc
       0.050424438 0.011136018 0.11193793 -0.02789395
000100 5a 69 75 3c 97 d0 e8 bc 58 93 c0 bc 9b 45 31 bb
       0.014978731 -0.028419776 -0.023507759 -0.0027049545
000110 34 ed a4 bc bd a5 1e 3d 01 c0 62 bc ad 36 ef bd
       -0.020132639 0.03873228 -0.013839723 -0.116803505
000120 c5 a3 37 bd d2 61 af bb f1 c6 3a 3d ac 8b 55 b9
       -0.044833917 -0.0053522373 0.04559988 -0.00020365295
000130 a9 3c de bc 6c 69 b1 3d a0 c5 58 3c dc c6 b3 3a
       -0.027128534 0.08662686 0.013230711 0.0013715881
000140 c9 19 12 bd 99 82 68 bd be d6 97 3d 1b 21 e7 bc
       -0.035669122 -0.056765173 0.07414006 -0.028214028
000150 4e e1 d5 3d 82 2c a2 3b b1 e9 ed 3c 8c 29 d6 bb
       0.10443364 0.0049491534 0.029042097 -0.0065357145
000160 ad da cc bd 7a 1f 38 bd 71 33 23 bc f6 31 42 3d
       -0.100026466 -0.044951893 -0.009960995 0.047410928
000170 b3 36 6b bb 85 bb cb bc 3f ff 1b 3c d5 fe 8e bd
       -0.0035890758 -0.02486969 0.009521305 -0.06982199
000180 d8 bd 48 bd 53 96 a1 3c bf 44 a4 bc 01 1c 1f 3c
       -0.049009174 0.019725 -0.020052312 0.0097112665
000190 84 2c 28 bd ad 25 d5 bc 51 5f 57 bc d0 de c7 bd
       -0.04105808 -0.026018942 -0.013145284 -0.09759295
0001a0 d1 0a dc bb 46 9b 05 bd 3a c7 ed 3c d9 62 57 3d
       -0.0067151566 -0.032618783 0.029025663 0.052584503
0001b0 37 12 5c 3c b5 7a 27 3c a8 a7 84 3d 42 c9 81 bd
       0.013432077 0.010222127 0.064772904 -0.06337215
0001c0 23 09 db 3c b1 57 31 3d 8b 37 3a bd 9c 9f da 3b
       0.026737755 0.04329652 -0.045463126 0.006671859
0001d0 5f 0a 0d 3b 46 f9 a0 3c 2d b6 39 3d 6e 4d 9a bb
       0.0021521074 0.019650113 0.045339752 -0.0047089374
0001e0 3a 0e dd bb 80 4e 66 bd 6f 05 ff 3c 78 00 89 bc
       -0.0067460807 -0.056227207 0.03113052 -0.016723856
0001f0 88 d1 1e bc ec 29 b3 bc b0 d0 57 3d e4 a1 6d 3d
       -0.009693511 -0.021870576 0.052689254 0.05801572
000200 5f 78 2b bc 45 b7 5f 3d f8 0f a5 3c b0 52 2b bd
       -0.01046571 0.05461814 0.020149216 -0.041826904
000210 99 bd 09 3d ba 2f 36 3d a0 59 b7 bc 08 0c 4c 3d
       0.03362808 0.04447911 -0.022381604 0.04981616
000220 cf 68 90 bd fe df e2 3a be a9 19 3c d6 ad e0 bc
       -0.07051241 0.0017309187 0.009378849 -0.027426641
000230 56 c1 83 3c 80 b2 f3 bc c9 c9 77 bc c5 bf 97 bb
       0.0160834 -0.029748201 -0.015123793 -0.004631015
000240 ed aa a1 bc f9 39 ad bd 05 47 df 3c 15 5a 37 3c
       -0.019734824 -0.08458323 0.027255544 0.011190911
000250 5e b7 31 3d ca 5c 17 bd 98 35 b0 3c e2 74 7b 3c
       0.043387763 -0.036953725 0.02150993 0.015347691
000260 5b 91 79 bd ad 92 5d 3b 6c 2c 08 bb 56 35 06 bc
       -0.060929637 0.003380935 -0.002077843 -0.008191427
000270 e6 cf 6c bd a4 08 01 bc 0a 90 64 bb 8a cd 8d bc
       -0.057815455 -0.007875595 -0.0034875893 -0.017309923
000280 0a 24 c4 3c 8a b0 e3 3c b6 9a c7 3c d0 93 1a bc
       0.023942966 0.027794141 0.024365764 -0.009434655
000290 a3 ad 6b bc ac 49 7e 3c bf 43 13 bd 4f d9 c3 bd
       -0.01438466 0.015520494 -0.03595328 -0.09562933
0002a0 0e 7f 18 3d 29 a6 a4 3c 62 27 92 bd 65 9e 52 3b
       0.037230544 0.020098763 -0.07136418 0.0032137868
0002b0 9d e5 b2 bb 6a 2e 12 3d 67 d4 12 bd bf 46 11 bd
       -0.005459501 0.035688795 -0.035847094 -0.03546786
0002c0 cd 21 33 bc 72 a9 15 bb a1 bb 63 bd 14 b8 cc 3c
       -0.010933352 -0.0022836593 -0.05559886 0.024990119
0002d0 98 a1 bc 3d cd bc cf 3c a8 72 54 bc 64 df 11 3c
       0.09210509 0.025358582 -0.012966789 0.008903358
0002e0 16 cb 9c 3d 46 1d e0 bc bf d7 6f bc 30 dd 4f bc
       0.07655923 -0.027357709 -0.01463884 -0.012687013
0002f0 94 df 29 bd ff e3 6d 3b 28 a3 89 3c 86 3e 0a bc
       -0.041472986 0.0036299226 0.016801432 -0.008437758
000300 8d 64 0a bc c8 bd 3f 3b 5e 54 b1 3b f7 72 c5 3c
       -0.008446825 0.0029257406 0.0054116687 0.024102671
000310 5c ee 9b bc b1 7e d4 3c 4c 3f b9 3c 20 eb 44 3d
       -0.019034557 0.025939317 0.02261319 0.048075795
000320 d0 13 06 3d 98 65 a0 3c 48 11 52 3d e0 53 32 bb
       0.03273374 0.019579694 0.051286012 -0.0027210638
000330 80 38 c5 3c 0d 0a 19 3d d7 a2 d3 bc eb 94 68 bd
       0.024074793 0.0373631 -0.025834484 -0.056782644
000340 2a 25 38 3d 45 02 8f bb 87 2e c2 3b 0d fd 3c bd
       0.044957317 -0.004364284 0.0059259566 -0.046139766
000350 6d 84 b5 bb c0 25 c8 bb 1d 27 aa 3a ac fe 43 bc
       -0.005539468 -0.006108016 0.0012981627 -0.011962574
000360 66 b3 04 3c 13 bc 16 3b a4 ef 42 3b d7 a2 5a 3b
       0.008099413 0.0023000285 0.0029744888 0.003336122
000370 f0 81 05 3d c3 4b 56 3d c5 f2 7c 3c bb 0a 9b 3c
       0.03259462 0.052318346 0.01543874 0.018926015
000380 0d 49 43 bd f2 b7 13 3d 16 3f 0d 3d 21 48 84 3a
       -0.04767709 0.036064096 0.03448399 0.0010092297
000390 d9 ca b4 3c e4 1b be bb 4e c2 26 bd c2 28 07 bc
       0.022069382 -0.0058016647 -0.040712647 -0.0082494635
0003a0 23 d2 a4 bc 03 71 8e 3d 87 b2 80 3d 32 a6 8d bd
       -0.020119732 0.06955149 0.062840514 -0.06916465
0003b0 0f e2 95 bc b0 07 50 3d af e4 1e bd 3c 90 95 bc
       -0.01829627 0.05078858 -0.03879231 -0.018257253
0003c0 64 4c 90 bc 2a 7b 4e bd 19 25 23 3d bc e7 fe 3c
       -0.01761455 -0.050410427 0.0398303 0.031116359
0003d0 65 d8 f9 bc 4e 20 ab 3b 58 69 fa bb 59 9c 37 bd
       -0.030498693 0.005222357 -0.0076419525 -0.04482684
0003e0 05 87 08 bd fb ba 80 ba ad e8 44 bd f2 c6 d3 bb
       -0.03333189 -0.000982135 -0.04807346 -0.006462925
0003f0 0e 6e 04 3d 19 a5 03 bc 4d 55 38 3d a1 64 06 bc
       0.03233152 -0.008034968 0.045003224 -0.008202703
